cnn_python/results/best.ckpt (torch, 8959 bytes, 4 tensors)

conv.weight f4 [8, 3, 3, 3]
-0.19231685 0.14258493 0.21078803 0.40307665 -0.11624266 -0.50480306 0.5770706 -0.45560032
-0.20047201 -0.17862797 0.072004445 -0.11784581 0.7663729 0.18433486 -0.4189598 0.5439276
-0.6566336 -0.42205122 -0.3511174 0.22984093 0.2462479 0.7848866 0.033172425 -0.20731673
0.5852586 -0.5321833 -0.3819026 0.6520613 0.5491539 0.23520328 -0.17073774 0.1522205
0.26568955 -0.68745184 -0.20070611 -0.2414432 0.21190298 0.012059286 0.15205854 -0.10611864
-0.111503266 0.25021136 -0.5596466 -0.2635456 -0.10551477 0.0451364 -0.33897576 -0.2777332
-0.23251835 -0.13477533 -0.16701534 -0.36285955 -0.1963647 -0.17025474 -0.31888145 0.15556584
0.17248347 -0.0971785 -0.51452893 -0.14339648 0.55282557 -0.074926235 -0.5962231 -0.18173851
-0.13056067 0.4212413 0.17785867 -0.18939443 -0.2954655 0.9666838 0.04430699 -0.39400837
-0.44676405 0.018081663 0.14198002 -0.10679373 -0.5312403 -0.2407194 0.6877664 0.07662463
-0.31190166 0.14866227 -0.09432237 0.056490682 0.31217661 0.49234954 0.54439235 -0.39615604
-0.41711918 -0.36273715 0.18084332 -0.12382038 -0.14953788 0.37067586 0.3701549 0.6872181
-0.5953668 -0.4595545 -0.46731448 0.18236001 -0.3939675 -0.19672911 0.31652185 0.32105
0.6070968 -0.39067435 -0.3230501 -0.33177868 0.14480518 0.097235344 0.23164342 -0.35960826
-0.37836358 -0.2691299 0.41101784 0.16883242 0.18413977 0.026821481 0.19322258 0.17470165
-0.1317437 -0.3873245 -0.279187 0.3886299 0.4130819 0.4154714 -0.10981168 0.14926541
-0.01669247 -0.51773465 -0.40524846 -0.6196316 0.09261604 0.27347413 0.26389498 0.4759447
0.121743046 -0.048968676 0.014496131 0.0350128 -0.31247017 -0.6809802 -0.39803785 -0.7194025
-0.07361495 0.015230408 -0.19442092 -0.012305667 0.17460392 -0.17458095 0.25407386 0.033247232
-0.14469491 -0.018186929 -0.3414013 -0.3020266 -0.3027858 0.051811628 -0.27967834 0.23383476
-0.10664367 0.03148495 0.2745661 -0.008951514 0.3812179 0.118477814 0.022012945 0.19927888
-0.08249303 -0.12807293 -0.06738573 0.13859782 0.22733611 -0.027659513 0.20352958 0.13653307
-0.024974832 -0.124328725 0.16414814 -0.15642971 -0.07176409 0.21714889 0.41168395 -0.006903841
0.1562206 0.014036811 0.020863019 -0.15282786 -0.27451152 0.32174614 -0.24935889 -0.50248617
-0.029077949 0.1799233 0.47450203 0.38033506 0.480653 0.5168741 -0.13846655 -0.08443109
-0.5945869 -0.3819186 -0.44928244 -0.102569744 -0.1241183 -0.17075993 -0.32326365 0.0086622
-0.15579346 -0.37275803 -0.1679368 -0.097617365 0.14480905 0.1460313 0.2022562 -0.08094288
00000000: b5ee 44be c901 123e d1d8 573e 1060 ce3e
00000010: a210 eebd c63a 01bf e6ba 133f 7244 e9be
00000020: 8948 4dbe 40ea 36be 1177 933d 2559 f1bd
00000030: 0431 443f 47c2 3c3e e681 d6be d73e 0b3f
00000040: 2419 28bf 1917 d8be a9c5 b3be 6c5b 6b3e
00000050: 6928 7c3e 54ee 483f cfdf 073d d64a 54be
00000060: 82d3 153f 2a3d 08bf bd88 c3be 7ded 263f
00000070: 5a95 0c3f 21d9 703e e0d5 2ebe b1df 1b3e
00000080: 7608 883e d8fc 2fbf e785 4dbe e33c 77be
00000090: 18fd 583e 5094 453c 3cb5 1b3e bb54 d9bd
000000a0: d35b e4bd b41b 803e 0045 0fbf 73ef 86be
000000b0: 2118 d8bd f2e0 383d 3b8e adbe 0c33 8ebe
000000c0: 4a19 6ebe 8b02 0abe 1206 2bbe bac8 b9be
000000d0: d413 49be 4257 2ebe 6e44 a3be a74c 1f3e
000000e0: 829f 303e 8505 c7bd 2bb8 03bf 87d6 12be
000000f0: fa85 0d3f ed72 99bd 14a2 18bf a919 3abe
00000100: b2b1 05be f1ac d73e 9520 363e 9df0 41be
00000110: 4147 97be 9778 773f 3f7b 353d 77bb c9be
00000120: 42be e4be ff1f 943c 3663 113e acb6 dabd
00000130: 5dff 07bf 257f 76be 7511 303f 60ed 9c3d
00000140: 93b1 9fbe ec3a 183e 162c c1bd c662 673d
00000150: 9dd5 9f3e 3d15 fc3e 4c5d 0b3f f7d4 cabe
00000160: a590 d5be afb8 b9be fe2e 393e 8a95 fdbd
00000170: 7520 19be 3ac9 bd3e f184 bd3e 87ed 2f3f
00000180: f569 18bf ba4a ebbe d843 efbe 95bc 3a3e
00000190: 1cb6 c9be 5b73 49be 270f a23e aa60 a43e
000001a0: b26a 1b3f 7806 c8be d366 a5be e5de a9be
000001b0: cf47 143e 5323 c73d ef33 6d3e 931e b8be
000001c0: dfb8 c1be 65cb 89be ee70 d23e 68e2 2c3e
000001d0: 238f 3c3e b9b8 db3c 24dc 453e fde4 323e
000001e0: d2e7 06be 664f c6be 99f1 8ebe 80fa c63e
000001f0: 797f d33e abb8 d43e f2e4 e0bd 08d9 183e
00000200: a6be 88bc 428a 04bf ba7c cfbe 2da0 1ebf
00000210: 7aad bd3d cd04 8c3e 3e1d 873e 06af f33e
00000220: 6b54 f93d 6193 48bd 2e81 6d3c 9569 0f3d
00000230: 17fc 9fbe b854 2ebf 9ecb cbbe c32a 38bf
00000240: 6fc3 96bd f688 793c 4716 47be b59d 49bc
00000250: 5fcb 323e 59c5 32be f815 823e 402e 083d
00000260: e72a 14be c1fc 94bc 27cc aebe 3ba3 9abe
00000270: be06 9bbe 6e38 543d 0032 8fbe 6172 6f3e
00000280: ff67 dabd 5df6 003d ee93 8c3e 5fa9 12bc
00000290: fe2e c33e 7fa4 f23d 7e54 b43c c30f 4c3e
000002a0: 1bf2 a8bd 8d25 03be 8801 8abd 96ec 0d3e
000002b0: ccca 683e 3496 e2bc 0f6a 503e 53cf 0b3e
000002c0: 0598 ccbc 0fa0 febd 7316 283e 1c2f 20be
000002d0: 0df9 92bd 475c 5e3e 3dc8 d23e 9e39 e2bb
000002e0: 4bf8 1f3e a7fa 653c ece8 aa3c e87e 1cbe
000002f0: c68c 8cbe e9bb a43e f057 7fbe efa2 00bf
00000300: e134 eebc d03d 383e eef1 f23e 47bb c23e
00000310: 2618 f63e dc51 043f 2dca 0dbe 35ea acbd
00000320: d936 18bf d68a c3be 5908 e6be 1610 d2bd
00000330: bc31 febd b1db 2ebe d082 a5be e6eb 0d3c
00000340: 5288 1fbe 24da bebe a0f7 2bbe 9deb c7bd
00000350: d348 143e 3b89 153e 401c 4f3e 61c5 a5bd

conv.bias f4 [8]
-0.08225064 0.006577691 0.29836157 -0.2813824 -0.15186572 -0.10826077 0.509894 0.03191973
00000000: 0673 a8bd ac89 d73b d9c2 983e 5b11 90be
00000010: b082 1bbe d3b7 ddbd 6a88 023f 43be 023d

fc.weight f4 [7, 200]
-0.14134078 -0.4240224 -0.11839669 -0.07333216 -0.16406381 0.3026061 0.6116318 -0.17911397
0.6209618 0.20704882 -0.069434606 -0.18599582 -0.019159583 -0.4288983 0.024788871 -0.02746317
0.120525464 0.11589455 -0.17411296 -0.01858967 -0.030436995 -0.030750876 0.23353598 0.045157645
0.009245578 0.0063872347 -0.0048619397 -0.0727273 0.043747734 0.007812616 -0.08952138 -0.23118617
-0.2289161 -0.24010625 -0.18653435 0.119580895 -0.30449453 -0.0016053629 -0.15443951 0.14082915
0.035765935 -0.1227863 0.48941877 0.18879415 -0.0047152075 0.03771716 -0.013311867 0.124768235
0.025039867 0.018338662 -0.05898607 0.074135624 0.00060849055 -0.025498915 0.05421928 0.04122528
0.0258323 -0.013860644 -0.16808446 0.24822865 0.0738718 -0.0017737558 0.12363111 -0.2234007
-0.22757193 0.097321026 -0.07912857 0.3224999 -0.19074365 0.050709587 -0.029385177 -0.08608141
0.011070096 -0.040717237 -0.029402224 0.117600076 0.012327087 -0.24160798 0.12865937 0.09447722
-0.14040218 -0.17855325 0.13087761 -0.36890885 0.046926826 0.27724573 0.004483788 0.18325412
-0.016520757 0.2795873 0.28061196 -0.55097145 0.07441484 -0.23945867 0.048013173 0.12713905
0.15108871 0.026940666 0.06759901 0.07532492 0.23414235 0.16123915 0.13354659 0.068338804
0.20185341 -0.17513314 -0.10032671 0.32291606 -0.14400952 -0.02637251 0.016558632 0.080108166
0.3513571 0.13244747 0.022840634 0.09154519 -0.22684474 -0.054543182 -0.16259603 0.022978626
-0.04221677 0.030686129 0.026852524 0.020309094 -0.04290042 -0.10734528 0.014098869 0.070576504
0.100527465 -0.11512788 -0.010884041 0.027180186 -0.33026442 0.097871974 -0.054985873 -0.08661206
-0.17721392 -0.11262399 -0.21792234 -0.045750905 -0.0036537503 0.15959461 0.4234921 -0.03410236
0.13416347 -0.030487308 -0.036819555 0.01098107 -0.008740835 -0.033609815 0.0049145888 0.0074549355
0.08126861 -0.007505541 0.056070197 -0.09987846 -0.056087073 0.15182315 -0.03161977 0.042613845
-0.26764572 -0.067967966 0.08175606 0.0022008168 -0.18156482 -0.24124047 0.09725503 0.03211871
0.12658294 -0.13204257 -0.058951914 -0.055764746 -0.19941334 0.021296572 -0.033593573 0.16639265
0.080237634 0.08133885 0.002863314 -0.0016414793 -0.09435983 -0.25853282 0.0031758887 -0.13894625
-0.11874803 -0.006072411 0.011357244 0.11012089 0.101018906 0.058528055 -0.19942169 0.26405096
0.37425232 -0.1024794 0.15334441 0.049362283 -0.055995703 0.028446218 -0.1439177 0.052584663
-0.029174991 -0.106912665 -0.054904263 -0.07996612 -0.14300324 0.13502735 0.32453263 0.19591014
0.40752915 0.07372032 -0.041407336 0.13254872 0.18363537 -0.12391972 -0.16124499 0.074062124
0.2806164 0.026839055 0.08554506 0.19015534 0.013834597 0.2656653 0.04482211 0.029850608
-0.029233798 0.14609596 0.027609004 -0.058912884 0.12562074 0.021610405 -0.16961257 -0.21564662
-0.067407936 -0.09747185 -0.10892723 -0.116254084 -0.120779514 -0.037310828 0.112941 -0.035892043
-0.050069824 0.2232901 -0.032244984 -0.014955509 -0.07595648 0.08226695 0.019072084 -0.12420346
0.0053743995 0.04071369 -0.034654226 -0.117082104 -0.061598513 0.15461454 0.011777862 -0.0869625
00000000: a3bb 10be 7719 d9be f779 f2bd 2c2f 96bd
00000010: 5800 28be 30ef 9a3e e793 1c3f a769 37be
00000020: 5af7 1e3f 9b04 543e bb33 8ebd b075 3ebe
00000030: 8ff4 9cbc 8f98 dbbe 0812 cb3c 71fa e0bc
00000040: 0ed6 f63d 1f5a ed3d ab4a 32be 5d49 98bc
00000050: 0157 f9bc 43e9 fbbc 0e24 6f3e 39f7 383d
00000060: c47a 173c 024c d13b e850 9fbb 0df2 94bd
00000070: d330 333d 7d00 003c fc56 b7bd 11bc 6cbe
00000080: fb68 6abe 6ade 75be dc02 3fbe d4e6 f43d
00000090: b5e6 9bbe 0a6b d2ba 6425 1ebe 8435 103e
000000a0: 4d7f 123d 6277 fbbd 1995 fa3e 4153 413e
000000b0: 0782 9abb 4f7d 1a3d 041a 5abc 7d86 ff3d
000000c0: 6820 cd3c f63a 963c 619b 71bd 6bd4 973d
000000d0: 1c83 1f3a 1ae3 d0bc 0915 5e3d d7db 283d
000000e0: 429e d33c c117 63bc 551e 2cbe a72f 7e3e
000000f0: 194a 973d 5e7d e8ba 4f32 fd3d 27c3 64be
00000100: 9e08 69be 3f50 c73d 290e a2bd b51e a53e
00000110: 4e52 43be dbb4 4f3d 2fb9 f0bc 734b b0bd
00000120: 595f 353c 1ec7 26bd efdc f0bc 4fd8 f03d
00000130: 8df7 493c 1568 77be 48bf 033e 467d c13d
00000140: 97c5 0fbe aad6 36be c804 063e 9fe1 bcbe
00000150: 5836 403d 27f3 8d3e bdec 923b f8a6 3b3e
00000160: 8a56 87bc 1126 8f3e 5fac 8f3e 770c 0dbf
00000170: cf66 983d a734 75be 76a9 443d bd30 023e
00000180: 00b7 1a3e acb2 dc3c 5a71 8a3d f443 9a3d
00000190: 03c3 6f3e e01b 253e 70c0 083e 37f5 8b3d
000001a0: a9b2 4e3e 1a56 33be 1778 cdbd 4155 a53e
000001b0: 3b77 13be 290b d8bc f8a5 873c c00f a43d
000001c0: 14e5 b33e 4fa0 073e 481c bb3c 0b7c bb3d
000001d0: fd49 68be ac68 5fbd 937f 26be ac3d bc3c
000001e0: 7eeb 2cbd 7a61 fb3c d3f9 db3c 425f a63c
000001f0: 5ab8 2fbd d8d7 dbbd f1fe 663c 6a8a 903d
00000200: 58e1 cd3d 2ac8 ebbd fa52 32bc fba8 de3c
00000210: 6b18 a9be 1a71 c83d de38 61bd aa61 b1bd
00000220: 9177 35be 68a7 e6bd 0927 5fbe 4d65 3bbd
00000230: c273 6fbb c56c 233e f5d3 d83e ebae 0bbd
00000240: 2662 093e 85c0 f9bc 1ad0 16bd f2e9 333c
00000250: b835 0fbc 72aa 09bd 8f0a a13b 8848 f43b
00000260: 2870 a63d 0bf1 f5bb dda9 653d 148d ccbd
00000270: 8fbb 65bd 8777 1b3e bb83 01bd db8b 2e3d
00000280: dc08 89be ca32 8bbd b96f a73d 943b 103b
00000290: 21ec 39be be07 77be a52d c73d e98e 033d
000002a0: f59e 013e 2b36 07be 9077 71bd 9369 64bd
000002b0: 0333 4cbe 2676 ae3c 6a99 09bd d662 2a3e
000002c0: a153 a43d fc94 a63d 70a6 3b3b e826 d7ba
000002d0: ba3f c1bd 6a5e 84be 9222 503b ed47 0ebe
000002e0: 2b32 f3bd 13fb c6bb bc13 3a3c 1087 e13d
000002f0: 00e3 ce3d 1dbb 6f3d 3335 4cbe b031 873e
00000300: 009e bf3e b8e0 d1bd 5106 1d3e 1b30 4a3d
00000310: c05b 65bd 0b08 e93c 295f 13be 0463 573d
00000320: 6400 efbc 07f5 dabd 4be3 60bd 47c5 a3bd
00000330: 716f 12be 9c44 0a3e 2429 a63e ab9c 483e
00000340: a9a7 d03e aefa 963d bd9a 29bd daba 073e
00000350: e90a 3c3e 9fc9 fdbd 681d 25be e2ad 973d
00000360: f4ac 8f3e 94dd db3c 4032 af3d 15b8 423e
00000370: 81aa 623c 4805 883e 6497 373d 4389 f43c
00000380: b87b efbc 2e9a 153e 472c e23c a34e 71bd
00000390: b9a2 003e 4e08 b13c ebae 2dbe 78d2 5cbe
000003a0: 2c0d 8abd 529f c7bd 3d15 dfbd 9f16 eebd
000003b0: 405b f7bd 3dd3 18bd 9c4d e73d 8903 13bd
000003c0: 0416 4dbd 29a6 643e 5113 04bd f407 75bc
000003d0: 128f 9bbd 937b a83d 0f3d 9c3c 625e febd
000003e0: bb1b b03b 66c3 263d 97f1 0dbd bec8 efbd
000003f0: b94e 7cbd 4653 1e3e eff7 403c 6519 b2bd

fc.bias f4 [7]
-0.01704402 -0.2856608 -0.048272654 0.12977435 -0.09578674 -0.3110706 0.20796287
00000000: e79f 8bbc 2242 92be 8cb9 45bd 91e3 043e
00000010: d72b c4bd a544 9fbe 38f4 543e
